{
  "format": "tfjs_graph_model",
  "generatedBy": "onnx-1.19",
  "convertedBy": "custom-extractor",
  "graph": {
    "name": "real_esrgan_x2",
    "nodes": [
      {
        "name": "conv0",
        "op": "Conv",
        "inputs": [
          "input",
          "conv0_weight",
          "conv0_bias"
        ],
        "outputs": [
          "conv0_out"
        ]
      },
      {
        "name": "prelu0",
        "op": "PRelu",
        "inputs": [
          "conv0_out",
          "prelu0_slope"
        ],
        "outputs": [
          "prelu0_out"
        ]
      },
      {
        "name": "conv1",
        "op": "Conv",
        "inputs": [
          "prelu0_out",
          "conv1_weight",
          "conv1_bias"
        ],
        "outputs": [
          "conv1_out"
        ]
      },
      {
        "name": "prelu1",
        "op": "PRelu",
        "inputs": [
          "conv1_out",
          "prelu0_slope"
        ],
        "outputs": [
          "prelu1_out"
        ]
      },
      {
        "name": "conv2",
        "op": "Conv",
        "inputs": [
          "prelu1_out",
          "conv2_weight",
          "conv1_bias"
        ],
        "outputs": [
          "conv2_out"
        ]
      },
      {
        "name": "prelu2",
        "op": "PRelu",
        "inputs": [
          "conv2_out",
          "prelu0_slope"
        ],
        "outputs": [
          "prelu2_out"
        ]
      },
      {
        "name": "conv3",
        "op": "Conv",
        "inputs": [
          "prelu2_out",
          "conv3_weight",
          "conv1_bias"
        ],
        "outputs": [
          "conv3_out"
        ]
      },
      {
        "name": "prelu3",
        "op": "PRelu",
        "inputs": [
          "conv3_out",
          "prelu0_slope"
        ],
        "outputs": [
          "prelu3_out"
        ]
      },
      {
        "name": "conv4",
        "op": "Conv",
        "inputs": [
          "prelu3_out",
          "conv4_weight",
          "conv1_bias"
        ],
        "outputs": [
          "conv4_out"
        ]
      },
      {
        "name": "prelu4",
        "op": "PRelu",
        "inputs": [
          "conv4_out",
          "prelu0_slope"
        ],
        "outputs": [
          "prelu4_out"
        ]
      },
      {
        "name": "conv5",
        "op": "Conv",
        "inputs": [
          "prelu4_out",
          "conv5_weight",
          "conv1_bias"
        ],
        "outputs": [
          "conv5_out"
        ]
      },
      {
        "name": "prelu5",
        "op": "PRelu",
        "inputs": [
          "conv5_out",
          "prelu0_slope"
        ],
        "outputs": [
          "prelu5_out"
        ]
      },
      {
        "name": "conv6",
        "op": "Conv",
        "inputs": [
          "prelu5_out",
          "conv6_weight",
          "conv1_bias"
        ],
        "outputs": [
          "conv6_out"
        ]
      },
      {
        "name": "prelu6",
        "op": "PRelu",
        "inputs": [
          "conv6_out",
          "prelu0_slope"
        ],
        "outputs": [
          "prelu6_out"
        ]
      },
      {
        "name": "conv7",
        "op": "Conv",
        "inputs": [
          "prelu6_out",
          "conv7_weight",
          "conv1_bias"
        ],
        "outputs": [
          "conv7_out"
        ]
      },
      {
        "name": "prelu7",
        "op": "PRelu",
        "inputs": [
          "conv7_out",
          "prelu0_slope"
        ],
        "outputs": [
          "prelu7_out"
        ]
      },
      {
        "name": "conv8",
        "op": "Conv",
        "inputs": [
          "prelu7_out",
          "conv8_weight",
          "conv1_bias"
        ],
        "outputs": [
          "conv8_out"
        ]
      },
      {
        "name": "prelu8",
        "op": "PRelu",
        "inputs": [
          "conv8_out",
          "prelu0_slope"
        ],
        "outputs": [
          "prelu8_out"
        ]
      },
      {
        "name": "conv9",
        "op": "Conv",
        "inputs": [
          "prelu8_out",
          "conv9_weight",
          "conv1_bias"
        ],
        "outputs": [
          "conv9_out"
        ]
      },
      {
        "name": "prelu9",
        "op": "PRelu",
        "inputs": [
          "conv9_out",
          "prelu0_slope"
        ],
        "outputs": [
          "prelu9_out"
        ]
      },
      {
        "name": "conv10",
        "op": "Conv",
        "inputs": [
          "prelu9_out",
          "conv10_weight",
          "conv1_bias"
        ],
        "outputs": [
          "conv10_out"
        ]
      },
      {
        "name": "prelu10",
        "op": "PRelu",
        "inputs": [
          "conv10_out",
          "prelu0_slope"
        ],
        "outputs": [
          "prelu10_out"
        ]
      },
      {
        "name": "conv11",
        "op": "Conv",
        "inputs": [
          "prelu10_out",
          "conv11_weight",
          "conv1_bias"
        ],
        "outputs": [
          "conv11_out"
        ]
      },
      {
        "name": "prelu11",
        "op": "PRelu",
        "inputs": [
          "conv11_out",
          "prelu0_slope"
        ],
        "outputs": [
          "prelu11_out"
        ]
      },
      {
        "name": "conv12",
        "op": "Conv",
        "inputs": [
          "prelu11_out",
          "conv12_weight",
          "conv1_bias"
        ],
        "outputs": [
          "conv12_out"
        ]
      },
      {
        "name": "prelu12",
        "op": "PRelu",
        "inputs": [
          "conv12_out",
          "prelu0_slope"
        ],
        "outputs": [
          "prelu12_out"
        ]
      },
      {
        "name": "conv13",
        "op": "Conv",
        "inputs": [
          "prelu12_out",
          "conv13_weight",
          "conv1_bias"
        ],
        "outputs": [
          "conv13_out"
        ]
      },
      {
        "name": "prelu13",
        "op": "PRelu",
        "inputs": [
          "conv13_out",
          "prelu0_slope"
        ],
        "outputs": [
          "prelu13_out"
        ]
      },
      {
        "name": "conv14",
        "op": "Conv",
        "inputs": [
          "prelu13_out",
          "conv14_weight",
          "conv1_bias"
        ],
        "outputs": [
          "conv14_out"
        ]
      },
      {
        "name": "prelu14",
        "op": "PRelu",
        "inputs": [
          "conv14_out",
          "prelu0_slope"
        ],
        "outputs": [
          "prelu14_out"
        ]
      },
      {
        "name": "conv15",
        "op": "Conv",
        "inputs": [
          "prelu14_out",
          "conv15_weight",
          "conv1_bias"
        ],
        "outputs": [
          "conv15_out"
        ]
      },
      {
        "name": "prelu15",
        "op": "PRelu",
        "inputs": [
          "conv15_out",
          "prelu0_slope"
        ],
        "outputs": [
          "prelu15_out"
        ]
      },
      {
        "name": "conv16",
        "op": "Conv",
        "inputs": [
          "prelu15_out",
          "conv16_weight",
          "conv1_bias"
        ],
        "outputs": [
          "conv16_out"
        ]
      },
      {
        "name": "prelu16",
        "op": "PRelu",
        "inputs": [
          "conv16_out",
          "prelu0_slope"
        ],
        "outputs": [
          "prelu16_out"
        ]
      },
      {
        "name": "conv_final",
        "op": "Conv",
        "inputs": [
          "prelu16_out",
          "conv_final_weight",
          "conv_final_bias"
        ],
        "outputs": [
          "conv_final_out"
        ]
      },
      {
        "name": "pixelshuffle",
        "op": "DepthToSpace",
        "inputs": [
          "conv_final_out"
        ],
        "outputs": [
          "output"
        ]
      }
    ],
    "inputs": [
      {
        "name": "input",
        "shape": [
          1,
          3,
          256,
          256
        ]
      }
    ],
    "outputs": [
      {
        "name": "output"
      }
    ]
  },
  "weightsManifest": [
    {
      "paths": [
        "weights.bin"
      ],
      "weights": [
        {
          "name": "conv0_weight",
          "shape": [
            64,
            3,
            3,
            3
          ],
          "dtype": "float16",
          "path": "weights.bin",
          "offset": 0,
          "length": 3456
        },
        {
          "name": "conv0_bias",
          "shape": [
            64
          ],
          "dtype": "float16",
          "path": "weights.bin",
          "offset": 3456,
          "length": 128
        },
        {
          "name": "prelu0_slope",
          "shape": [
            64
          ],
          "dtype": "float16",
          "path": "weights.bin",
          "offset": 3584,
          "length": 128
        },
        {
          "name": "conv1_weight",
          "shape": [
            64,
            64,
            3,
            3
          ],
          "dtype": "float16",
          "path": "weights.bin",
          "offset": 3712,
          "length": 73728
        },
        {
          "name": "conv1_bias",
          "shape": [
            64
          ],
          "dtype": "float16",
          "path": "weights.bin",
          "offset": 77440,
          "length": 128
        },
        {
          "name": "conv2_weight",
          "shape": [
            64,
            64,
            3,
            3
          ],
          "dtype": "float16",
          "path": "weights.bin",
          "offset": 77568,
          "length": 73728
        },
        {
          "name": "conv3_weight",
          "shape": [
            64,
            64,
            3,
            3
          ],
          "dtype": "float16",
          "path": "weights.bin",
          "offset": 151296,
          "length": 73728
        },
        {
          "name": "conv4_weight",
          "shape": [
            64,
            64,
            3,
            3
          ],
          "dtype": "float16",
          "path": "weights.bin",
          "offset": 225024,
          "length": 73728
        },
        {
          "name": "conv5_weight",
          "shape": [
            64,
            64,
            3,
            3
          ],
          "dtype": "float16",
          "path": "weights.bin",
          "offset": 298752,
          "length": 73728
        },
        {
          "name": "conv6_weight",
          "shape": [
            64,
            64,
            3,
            3
          ],
          "dtype": "float16",
          "path": "weights.bin",
          "offset": 372480,
          "length": 73728
        },
        {
          "name": "conv7_weight",
          "shape": [
            64,
            64,
            3,
            3
          ],
          "dtype": "float16",
          "path": "weights.bin",
          "offset": 446208,
          "length": 73728
        },
        {
          "name": "conv8_weight",
          "shape": [
            64,
            64,
            3,
            3
          ],
          "dtype": "float16",
          "path": "weights.bin",
          "offset": 519936,
          "length": 73728
        },
        {
          "name": "conv9_weight",
          "shape": [
            64,
            64,
            3,
            3
          ],
          "dtype": "float16",
          "path": "weights.bin",
          "offset": 593664,
          "length": 73728
        },
        {
          "name": "conv10_weight",
          "shape": [
            64,
            64,
            3,
            3
          ],
          "dtype": "float16",
          "path": "weights.bin",
          "offset": 667392,
          "length": 73728
        },
        {
          "name": "conv11_weight",
          "shape": [
            64,
            64,
            3,
            3
          ],
          "dtype": "float16",
          "path": "weights.bin",
          "offset": 741120,
          "length": 73728
        },
        {
          "name": "conv12_weight",
          "shape": [
            64,
            64,
            3,
            3
          ],
          "dtype": "float16",
          "path": "weights.bin",
          "offset": 814848,
          "length": 73728
        },
        {
          "name": "conv13_weight",
          "shape": [
            64,
            64,
            3,
            3
          ],
          "dtype": "float16",
          "path": "weights.bin",
          "offset": 888576,
          "length": 73728
        },
        {
          "name": "conv14_weight",
          "shape": [
            64,
            64,
            3,
            3
          ],
          "dtype": "float16",
          "path": "weights.bin",
          "offset": 962304,
          "length": 73728
        },
        {
          "name": "conv15_weight",
          "shape": [
            64,
            64,
            3,
            3
          ],
          "dtype": "float16",
          "path": "weights.bin",
          "offset": 1036032,
          "length": 73728
        },
        {
          "name": "conv16_weight",
          "shape": [
            64,
            64,
            3,
            3
          ],
          "dtype": "float16",
          "path": "weights.bin",
          "offset": 1109760,
          "length": 73728
        },
        {
          "name": "conv_final_weight",
          "shape": [
            12,
            64,
            3,
            3
          ],
          "dtype": "float16",
          "path": "weights.bin",
          "offset": 1183488,
          "length": 13824
        },
        {
          "name": "conv_final_bias",
          "shape": [
            12
          ],
          "dtype": "float16",
          "path": "weights.bin",
          "offset": 1197312,
          "length": 24
        }
      ]
    }
  ]
}